trained_prompts/vicuna-7b-v1.5/type.all_length.mistral.safetensors (safetensors, 442456 bytes, 1 tensors)

soft_prompt bf16 [54, 4096]
0	0x3b80	0.00390625
1	0xbc59	-0.013244629
2	0xbc27	-0.010192871
3	0xbb58	-0.0032958984
4	0xbb36	-0.0027770996
5	0xbbe0	-0.0068359375
6	0x3af3	0.0018539429
7	0x3c98	0.018554688
8	0x3ccb	0.024780273
9	0xbb29	-0.0025787354
10	0x3b80	0.00390625
11	0xbcae	-0.021240234
12	0x3c51	0.012756348
13	0xbc9f	-0.01940918
14	0xbb40	-0.0029296875
15	0x3d16	0.036621094
16	0xbbaf	-0.005340576
17	0xbc1c	-0.009521484
18	0x3b27	0.0025482178
19	0xba82	-0.0009918213
20	0xbc43	-0.0119018555
21	0x3bdd	0.0067443848
22	0x3ca4	0.020019531
23	0xbb94	-0.0045166016
24	0x3c66	0.014038086
25	0x3b50	0.0031738281
26	0xbc5c	-0.013427734
27	0x3b2e	0.0026550293
28	0xbbd4	-0.0064697266
29	0x3afe	0.0019378662
30	0x3be6	0.007019043
31	0xbc0e	-0.008666992
32	0x3c58	0.013183594
33	0x3c28	0.010253906
34	0x3bb8	0.0056152344
35	0x3be9	0.0071105957
36	0x3cef	0.029174805
37	0xbbae	-0.0053100586
38	0x3b12	0.0022277832
39	0xbba8	-0.005126953
40	0xbc80	-0.015625
41	0xbc64	-0.013916016
42	0x3b97	0.0046081543
43	0xbb11	-0.0022125244
44	0xbc00	-0.0078125
45	0xbc8c	-0.017089844
46	0x3c36	0.011108398
47	0xbb02	-0.0019836426
48	0xbc00	-0.0078125
49	0x3c9e	0.01928711
50	0xbcab	-0.020874023
51	0xbc67	-0.014099121
52	0xbc49	-0.012268066
53	0x3cc0	0.0234375
54	0xbbdb	-0.0066833496
55	0xbb6a	-0.0035705566
56	0xbc65	-0.013977051
57	0x3b86	0.0040893555
58	0x3c1c	0.009521484
59	0xbaf9	-0.0018997192
60	0x3ccb	0.024780273
61	0x3ba9	0.0051574707
62	0x3c02	0.00793457
63	0xbc52	-0.012817383
64	0xbcbe	-0.02319336
65	0x3abe	0.001449585
66	0xbc17	-0.009216309
67	0xbc80	-0.015625
68	0xbd12	-0.03564453
69	0x3b91	0.004425049
70	0x3bec	0.0072021484
71	0x3cd5	0.026000977
72	0xbc5b	-0.013366699
73	0x3cf7	0.030151367
74	0x3c8e	0.017333984
75	0xbbac	-0.0052490234
76	0xbb3e	-0.00289917
77	0xbbb4	-0.005493164
78	0x3b0e	0.002166748
79	0xbc00	-0.0078125
80	0xbc35	-0.011047363
81	0xbcfb	-0.030639648
82	0x3c00	0.0078125
83	0xbd27	-0.040771484
84	0x3c7d	0.0154418945
85	0x3bf3	0.0074157715
86	0x3c3e	0.01159668
87	0x3c28	0.010253906
88	0x3b92	0.0044555664
89	0xbaf9	-0.0018997192
90	0x3c89	0.016723633
91	0x39c2	0.00037002563
92	0x3a7a	0.0009536743
93	0x3bf5	0.0074768066
94	0x3b2e	0.0026550293
95	0xbc01	-0.007873535
96	0x3c1c	0.009521484
97	0x3c86	0.016357422
98	0xbb9c	-0.004760742
99	0xbccb	-0.024780273
100	0x3bac	0.0052490234
101	0xbd05	-0.032470703
102	0x3c20	0.009765625
103	0xbc80	-0.015625
104	0x3ce5	0.027954102
105	0x3b80	0.00390625
106	0x3b2c	0.0026245117
107	0xbb8f	-0.0043640137
108	0xbc47	-0.012145996
109	0x3c16	0.009155273
110	0xbbd6	-0.0065307617
111	0x3b8b	0.0042419434
112	0x3c6e	0.014526367
113	0xbc84	-0.016113281
114	0xbaca	-0.0015411377
115	0x3c47	0.012145996
116	0xbbc2	-0.00592041
117	0xbc95	-0.018188477
118	0x3a5f	0.0008506775
119	0xbca5	-0.020141602
120	0xbbfb	-0.007659912
121	0x3b3e	0.00289917
122	0xbc80	-0.015625
123	0xbc22	-0.009887695
124	0xbcbe	-0.02319336
125	0xbaad	-0.0013198853
126	0x3b20	0.0024414062
127	0xbc73	-0.014831543
128	0xbcd1	-0.025512695
129	0x3ca0	0.01953125
130	0xbc34	-0.010986328
131	0x37ab	2.0384789e-05
132	0x3b51	0.003189087
133	0x3c4f	0.012634277
134	0x3c3d	0.0115356445
135	0xb95f	-0.00021266937
136	0xbbf2	-0.007385254
137	0x3c16	0.009155273
138	0xbc84	-0.016113281
139	0x3b85	0.004058838
140	0x3af8	0.0018920898
141	0xbc9d	-0.019165039
142	0x3aeb	0.0017929077
143	0x3c4c	0.012451172
144	0x3c7e	0.01550293
145	0xbb05	-0.002029419
146	0xbc7d	-0.0154418945
147	0xbbdc	-0.006713867
148	0xbb8e	-0.004333496
149	0xbc1d	-0.0095825195
150	0x3a7e	0.0009689331
151	0x3c2f	0.010681152
152	0xbc22	-0.009887695
153	0x3c3e	0.01159668
154	0x3c90	0.017578125
155	0xbd09	-0.033447266
156	0xbc7a	-0.015258789
157	0xbc88	-0.016601562
158	0xba8c	-0.0010681152
159	0x3bd8	0.006591797
160	0xbc06	-0.008178711
161	0xbb29	-0.0025787354
162	0xbcb0	-0.021484375
163	0x3cc0	0.0234375
164	0x3c99	0.018676758
165	0x3c37	0.011169434
166	0x3bef	0.007293701
167	0x3ce5	0.027954102
168	0x3bc0	0.005859375
169	0xbc80	-0.015625
170	0xbbbc	-0.0057373047
171	0xbccc	-0.024902344
172	0x3c19	0.009338379
173	0x3b6f	0.0036468506
174	0xbca3	-0.019897461
175	0x3aba	0.0014190674
176	0xbc51	-0.012756348
177	0xbbf1	-0.0073547363
178	0xbd00	-0.03125
179	0xba72	-0.00092315674
180	0x3c2c	0.010498047
181	0x3c33	0.010925293
182	0xbc38	-0.011230469
183	0xbc2a	-0.010375977
184	0x3c86	0.016357422
185	0x3c9d	0.019165039
186	0x3d39	0.045166016
187	0x3aed	0.0018081665
188	0xbc45	-0.012023926
189	0xbc35	-0.011047363
190	0xbb0c	-0.0021362305
191	0x3b43	0.0029754639
192	0xbc85	-0.016235352
193	0xbc80	-0.015625
194	0x3bab	0.005218506
195	0xbbcc	-0.006225586
196	0xbb97	-0.0046081543
197	0x3c9a	0.018798828
198	0x3bf3	0.0074157715
199	0xbbbf	-0.0058288574
200	0xbc99	-0.018676758
201	0xbcab	-0.020874023
202	0x3c49	0.012268066
203	0x3c2b	0.010437012
204	0x3c9a	0.018798828
205	0x3ab8	0.0014038086
206	0xbc9d	-0.019165039
207	0x3cb1	0.021606445
208	0x3ad1	0.0015945435
209	0xbc16	-0.009155273
210	0x3d4e	0.05029297
211	0xbba7	-0.0050964355
212	0x3c65	0.013977051
213	0xbb80	-0.00390625
214	0x3c2b	0.010437012
215	0xb936	-0.00017356873
216	0x3c9a	0.018798828
217	0xbb87	-0.004119873
218	0xbb7d	-0.0038604736
219	0xba74	-0.00093078613
220	0xbc24	-0.010009766
221	0xbc58	-0.013183594
222	0x3c9d	0.019165039
223	0x3bc6	0.0060424805
224	0x3c3e	0.01159668
225	0xbc89	-0.016723633
226	0x3a89	0.001045227
227	0x3b05	0.002029419
228	0xbca8	-0.020507812
229	0xbb3a	-0.0028381348
230	0x3c78	0.015136719
231	0xbc35	-0.011047363
232	0xbc9d	-0.019165039
233	0x3b5e	0.0033874512
234	0x39f3	0.00046348572
235	0x3c93	0.017944336
236	0xbc32	-0.010864258
237	0xbc43	-0.0119018555
238	0x3c2c	0.010498047
239	0xb9a3	-0.00031089783
240	0x3bcb	0.0061950684
241	0x3c18	0.009277344
242	0xbab2	-0.0013580322
243	0x3cfb	0.030639648
244	0xb9ae	-0.00033187866
245	0x3c5d	0.0134887695
246	0x3c33	0.010925293
247	0xbb97	-0.0046081543
248	0x3a21	0.00061416626
249	0x3ce2	0.02758789
250	0xbbb9	-0.005645752
251	0xbc21	-0.00982666
252	0xbb0a	-0.002105713
253	0xbbc2	-0.00592041
254	0xbc31	-0.010803223
255	0x3bb2	0.005432129
