trained_prompts/vicuna-7b-v1.5/type.all_length.default.safetensors (safetensors, 950360 bytes, 1 tensors)

soft_prompt bf16 [116, 4096]
000000 53 3b 1d bc 17 bc d7 ba 80 3b e0 3b f9 3b b9 3b
       0.0032196045 -0.0095825195 -0.009216309 -0.0016403198 0.00390625 0.0068359375 0.007598877 0.005645752
000010 46 bb 9b bb 12 bc e9 bc 0f 3b 6b bc 07 bc 08 3d
       -0.0030212402 -0.0047302246 -0.008911133 -0.028442383 0.0021820068 -0.014343262 -0.008239746 0.033203125
000020 1d 3b 1c bc 83 bb 0b bc bf ba 04 3c c1 3c 8a bb
       0.0023956299 -0.009521484 -0.0039978027 -0.008483887 -0.0014572144 0.008056641 0.02355957 -0.004211426
000030 88 3b 11 bc c8 bb 8b 3a b6 ba 68 bb 68 3c a9 3a
       0.0041503906 -0.008850098 -0.0061035156 0.0010604858 -0.0013885498 -0.003540039 0.014160156 0.0012893677
000040 bc 3b bd 3c d3 bb 67 3c a4 3c 36 bc d8 3b c3 ba
       0.0057373047 0.023071289 -0.006439209 0.014099121 0.020019531 -0.011108398 0.006591797 -0.0014877319
000050 00 bc 5b bc 55 3c 24 bc f0 bb 17 bc 3b b9 03 3b
       -0.0078125 -0.013366699 0.013000488 -0.010009766 -0.0073242188 -0.009216309 -0.0001783371 0.0019989014
000060 07 3c b0 3c 71 bc 1e bb 1b bc fb 3b 09 bc 08 bc
       0.008239746 0.021484375 -0.014709473 -0.0024108887 -0.009460449 0.007659912 -0.008361816 -0.008300781
000070 97 bc 6b 3c b1 3c eb 3a e4 3c 35 3b 00 bc 38 bc
       -0.018432617 0.014343262 0.021606445 0.0017929077 0.027832031 0.0027618408 -0.0078125 -0.011230469
000080 27 bd f0 3b d1 bb a5 bc e5 bc 5d 3b bf 3c aa 3c
       -0.040771484 0.0073242188 -0.006378174 -0.020141602 -0.027954102 0.0033721924 0.02331543 0.020751953
000090 56 bc b0 3c 41 3b ba bb ad ba 00 bc 15 3c 82 bc
       -0.013061523 0.021484375 0.0029449463 -0.0056762695 -0.0013198853 -0.0078125 0.009094238 -0.01586914
0000a0 ad bb 0b bd 2f 3c d7 bc 5a ba 24 3c f4 3a 48 3c
       -0.005279541 -0.033935547 0.010681152 -0.026245117 -0.000831604 0.010009766 0.0018615723 0.012207031
0000b0 d6 39 19 3c 8b 3c 26 3c 84 bb 88 3c 9b 3c f9 ba
       0.0004081726 0.009338379 0.016967773 0.010131836 -0.0040283203 0.016601562 0.018920898 -0.0018997192
0000c0 7c 3b a8 3c ac bb af bc 88 3c e5 bc 0d 3c 21 3b
       0.0038452148 0.020507812 -0.0052490234 -0.021362305 0.016601562 -0.027954102 0.008605957 0.002456665
0000d0 89 3b 80 bb 13 bb 2c bc c9 bb 08 3c 1f bc cc 3a
       0.004180908 -0.00390625 -0.002243042 -0.010498047 -0.006134033 0.008300781 -0.00970459 0.0015563965
0000e0 c7 3c 93 bc 1e bc 12 3c de bb 5b bc 30 3b 43 bc
       0.024291992 -0.017944336 -0.009643555 0.008911133 -0.0067749023 -0.013366699 0.0026855469 -0.0119018555
0000f0 15 3b ce 3b e7 b9 39 bc 2b bc 58 bb 07 3b a1 bc
       0.0022735596 0.006286621 -0.00044059753 -0.011291504 -0.010437012 -0.0032958984 0.0020599365 -0.01965332
000100 c7 bc e2 3b df bc 24 3c 66 3c bc 3b ba 3c 28 3c
       -0.024291992 0.0068969727 -0.02722168 0.010009766 0.014038086 0.0057373047 0.022705078 0.010253906
000110 24 3b 79 bb 8f bc a9 bb b5 3b 00 3c 81 3c 5e 3c
       0.0025024414 -0.0037994385 -0.017456055 -0.0051574707 0.0055236816 0.0078125 0.01574707 0.013549805
000120 10 3c b6 bb 1d bc 99 3b be bb 0b bc da ba 19 36
       0.0087890625 -0.005554199 -0.0095825195 0.0046691895 -0.00579834 -0.008483887 -0.001663208 2.2798777e-06
000130 ac 3b 46 3b ab 3b 00 bd 3b bc 4c bc 1b 3c af 3c
       0.0052490234 0.0030212402 0.005218506 -0.03125 -0.011413574 -0.012451172 0.009460449 0.021362305
000140 87 bc 0e 3c cb 3b c6 3c da 3c 36 3b a7 3c 99 3c
       -0.016479492 0.008666992 0.0061950684 0.024169922 0.026611328 0.0027770996 0.020385742 0.018676758
000150 e3 3b bb bc 77 bc d9 bc 18 3c 0e 3c a5 bc 1f 3c
       0.0069274902 -0.022827148 -0.015075684 -0.026489258 0.009277344 0.008666992 -0.020141602 0.00970459
000160 86 bc 1e bc f1 bb 3a bb a2 3c cc 3c 15 bb 37 bb
       -0.016357422 -0.009643555 -0.0073547363 -0.0028381348 0.01977539 0.024902344 -0.0022735596 -0.0027923584
000170 61 3c 53 3c 11 3d eb 3a 1c 3b a0 bb 3d ba 55 3c
       0.01373291 0.012878418 0.03540039 0.0017929077 0.002380371 -0.0048828125 -0.0007209778 0.013000488
000180 0d ba 33 bc e2 bb 74 3b 45 bb e8 3c 91 3a 9b bc
       -0.0005378723 -0.010925293 -0.0068969727 0.0037231445 -0.0030059814 0.028320312 0.0011062622 -0.018920898
000190 91 bc ac bc a8 3c 27 3c e5 3a 72 3c 89 bc 01 3d
       -0.017700195 -0.020996094 0.020507812 0.010192871 0.0017471313 0.014770508 -0.016723633 0.03149414
0001a0 2a bc 0d 3b 53 3d 5f bb 0a 3c f8 bb 61 3c 0b 3c
       -0.010375977 0.0021514893 0.051513672 -0.00340271 0.008422852 -0.0075683594 0.01373291 0.008483887
0001b0 c6 3b 43 bc 01 3b 46 bc 35 3b 87 bb ab 3c 05 3a
       0.0060424805 -0.0119018555 0.0019683838 -0.012084961 0.0027618408 -0.004119873 0.020874023 0.00050735474
0001c0 97 3b 9e bc 4a 3b 5a 3b 74 bc 4f bb a6 3c 80 bb
       0.0046081543 -0.01928711 0.0030822754 0.003326416 -0.014892578 -0.0031585693 0.020263672 -0.00390625
0001d0 16 bc af 3a 9c 3a 80 3b 4e bc ee bb bc ba 90 3b
       -0.009155273 0.001335144 0.0011901855 0.00390625 -0.012573242 -0.0072631836 -0.0014343262 0.0043945312
0001e0 5a 3c 14 3c c1 3b 92 3c 18 bc 35 3c a3 3c 9f bc
       0.013305664 0.009033203 0.0058898926 0.017822266 -0.009277344 0.011047363 0.019897461 -0.01940918
0001f0 ba bc f9 3c 20 bc 39 bc 55 bb e8 3b 80 bc 9e ba
       -0.022705078 0.030395508 -0.009765625 -0.011291504 -0.003250122 0.007080078 -0.015625 -0.0012054443
