trained_prompts/vicuna-7b-v1.5/type.all_length.short.safetensors (safetensors, 188504 bytes, 1 tensors)

soft_prompt bf16 [23, 4096]
0	0xbb60	-0.0034179688
1	0xbc05	-0.008117676
2	0x3b3d	0.0028839111
3	0x3b28	0.0025634766
4	0xbbb1	-0.0054016113
5	0x3bd6	0.0065307617
6	0xbc4d	-0.012512207
7	0x3c9d	0.019165039
8	0x3c32	0.010864258
9	0xbc17	-0.009216309
10	0xbb27	-0.0025482178
11	0xbcb4	-0.021972656
12	0x3cce	0.025146484
13	0xbcfb	-0.030639648
14	0xbc2a	-0.010375977
15	0x3cda	0.026611328
16	0xbc41	-0.011779785
17	0xbbe6	-0.007019043
18	0xba06	-0.00051116943
19	0xbc82	-0.01586914
20	0xbc00	-0.0078125
21	0x3cb9	0.022583008
22	0x3bbd	0.0057678223
23	0xbc85	-0.016235352
24	0x3bfa	0.0076293945
25	0xbbe4	-0.006958008
26	0xbc80	-0.015625
27	0xbba1	-0.00491333
28	0x39d0	0.00039672852
29	0x3c38	0.011230469
30	0x3c8e	0.017333984
31	0x3b6b	0.0035858154
32	0x3a0c	0.0005340576
33	0xbbee	-0.0072631836
34	0x39c7	0.00037956238
35	0x39dd	0.00042152405
36	0x3c43	0.0119018555
37	0xbb16	-0.0022888184
38	0x3b5d	0.0033721924
39	0xbbf3	-0.0074157715
40	0xbc77	-0.015075684
41	0xbcc4	-0.023925781
42	0x3c59	0.013244629
43	0xbc27	-0.010192871
44	0xbc38	-0.011230469
45	0xbbf3	-0.0074157715
46	0x3b83	0.0039978027
47	0xbc32	-0.010864258
48	0x3b07	0.0020599365
49	0x3c97	0.018432617
50	0xbcb6	-0.022216797
51	0x3b95	0.004547119
52	0x3b14	0.0022583008
53	0x3c90	0.017578125
54	0xba20	-0.00061035156
55	0xbc5e	-0.013549805
56	0x3b98	0.004638672
57	0xbc46	-0.012084961
58	0x3c96	0.018310547
59	0xbc62	-0.013793945
60	0x3ca9	0.020629883
61	0x3c69	0.014221191
62	0x3c27	0.010192871
63	0xbb55	-0.003250122
64	0xbcde	-0.02709961
65	0xbb70	-0.0036621094
66	0xbbbf	-0.0058288574
67	0x3992	0.0002784729
68	0xbd0e	-0.03466797
69	0x3b97	0.0046081543
70	0x3c32	0.010864258
71	0x3cb9	0.022583008
72	0xbccf	-0.025268555
73	0x3d00	0.03125
74	0x3b8f	0.0043640137
75	0x3cad	0.021118164
76	0xbc21	-0.00982666
77	0xbc76	-0.015014648
78	0x3bd3	0.006439209
79	0xbca0	-0.01953125
80	0xbc1f	-0.00970459
81	0xbd37	-0.044677734
82	0xbc26	-0.010131836
83	0xbd1f	-0.03881836
84	0x3c08	0.008300781
85	0x3cae	0.021240234
86	0x3bf1	0.0073547363
87	0x3bd3	0.006439209
88	0x3c12	0.008911133
89	0x3b22	0.0024719238
90	0x3cc0	0.0234375
91	0xbbcc	-0.006225586
92	0x3b22	0.0024719238
93	0x3c56	0.013061523
94	0x3c29	0.010314941
95	0xbc20	-0.009765625
96	0x3cbc	0.022949219
97	0x3cbb	0.022827148
98	0xbbf3	-0.0074157715
99	0xbc4a	-0.012329102
100	0x3c16	0.009155273
101	0xbc39	-0.011291504
102	0x3cc2	0.02368164
103	0xbc01	-0.007873535
104	0x3ca8	0.020507812
105	0x3b20	0.0024414062
106	0xbbef	-0.007293701
107	0xbc88	-0.016601562
108	0xbc81	-0.01574707
109	0x3c96	0.018310547
110	0x3b14	0.0022583008
111	0x3c35	0.011047363
112	0x3c50	0.0126953125
113	0xbc65	-0.013977051
114	0xba1a	-0.0005874634
115	0x3c83	0.015991211
116	0xbc10	-0.0087890625
117	0xbc73	-0.014831543
118	0xbaf1	-0.0018386841
119	0xbc4e	-0.012573242
120	0xbbb8	-0.0056152344
121	0xba19	-0.0005836487
122	0xbba4	-0.005004883
123	0xb984	-0.00025177002
124	0xbb41	-0.0029449463
125	0x3c52	0.012817383
126	0xbba7	-0.0050964355
127	0xbc34	-0.010986328
128	0xbcf9	-0.030395508
129	0x3b98	0.004638672
130	0xba85	-0.0010147095
131	0x3c7e	0.01550293
132	0x3b22	0.0024719238
133	0x3c94	0.018066406
134	0x3ca1	0.01965332
135	0x3cd8	0.026367188
136	0xbb98	-0.004638672
137	0x3baf	0.005340576
138	0xbc1d	-0.0095825195
139	0xbb94	-0.0045166016
140	0xba8d	-0.0010757446
141	0x3bb8	0.0056152344
142	0x3cda	0.026611328
143	0x3c99	0.018676758
144	0x3c44	0.011962891
145	0xbc79	-0.015197754
146	0xbc7a	-0.015258789
147	0xbc30	-0.0107421875
148	0xbba4	-0.005004883
149	0xbb7c	-0.0038452148
150	0xbc3f	-0.011657715
151	0x3c84	0.016113281
152	0x3b44	0.0029907227
153	0x3c32	0.010864258
154	0x3c25	0.010070801
155	0xbbd4	-0.0064697266
156	0xbc8d	-0.017211914
157	0x3a98	0.001159668
158	0x3a2e	0.0006637573
159	0xbb81	-0.0039367676
160	0xb988	-0.0002593994
161	0x3c09	0.008361816
162	0xbbff	-0.0077819824
163	0x3ce7	0.028198242
164	0x3cab	0.020874023
165	0x3c4d	0.012512207
166	0x3c80	0.015625
167	0x3ce7	0.028198242
168	0x3c64	0.013916016
169	0xbcc5	-0.024047852
170	0xbc82	-0.01586914
171	0xbcba	-0.022705078
172	0x3c41	0.011779785
173	0x3b78	0.0037841797
174	0x3ba1	0.00491333
175	0x3c2c	0.010498047
176	0xbb9f	-0.004852295
177	0xbc60	-0.013671875
178	0xbc94	-0.018066406
179	0x3c24	0.010009766
180	0x3cd1	0.025512695
181	0x3ce0	0.02734375
182	0xba47	-0.00075912476
183	0xbbb2	-0.005432129
184	0x3ba7	0.0050964355
185	0x3cef	0.029174805
186	0x3cec	0.028808594
187	0x3c33	0.010925293
188	0xbbdd	-0.0067443848
189	0xbc0d	-0.008605957
190	0xbb80	-0.00390625
191	0x3bc3	0.0059509277
192	0xbbff	-0.0077819824
193	0xbc81	-0.01574707
194	0xbb8b	-0.0042419434
195	0x3c64	0.013916016
196	0xbc50	-0.0126953125
197	0x3cce	0.025146484
198	0x3c1d	0.0095825195
199	0xbad6	-0.0016326904
200	0xbc0f	-0.008728027
201	0xbc39	-0.011291504
202	0x3ca3	0.019897461
203	0x3ca9	0.020629883
204	0x3ca3	0.019897461
205	0x3c0d	0.008605957
206	0xbc0a	-0.008422852
207	0x3cfb	0.030639648
208	0xbc8d	-0.017211914
209	0xbc1b	-0.009460449
210	0x3d47	0.048583984
211	0x3b82	0.003967285
212	0x3c9a	0.018798828
213	0xbc05	-0.008117676
214	0x3bdc	0.006713867
215	0xbc02	-0.00793457
216	0xb92a	-0.00016212463
217	0x3974	0.00023269653
218	0xbcb0	-0.021484375
219	0x3c63	0.0138549805
220	0xbb48	-0.0030517578
221	0xbc98	-0.018554688
222	0x3c58	0.013183594
223	0x3b33	0.0027313232
224	0x3c17	0.009216309
225	0xbc76	-0.015014648
226	0x3b5e	0.0033874512
227	0x3c3a	0.011352539
228	0xbc07	-0.008239746
229	0x3be1	0.006866455
230	0x3caa	0.020751953
231	0xbc8c	-0.017089844
232	0xbc2a	-0.010375977
233	0xbc1e	-0.009643555
234	0x3bd3	0.006439209
235	0x3c04	0.008056641
236	0xbc48	-0.012207031
237	0xbc78	-0.015136719
238	0x3bd9	0.0066223145
239	0xbbf9	-0.007598877
240	0x3c6d	0.014465332
241	0xbc3e	-0.01159668
242	0xbc08	-0.008300781
243	0x3ce4	0.027832031
244	0xbc09	-0.008361816
245	0x3c8d	0.017211914
246	0x3c39	0.011291504
247	0xbc82	-0.01586914
248	0xbc3c	-0.011474609
249	0x3cb4	0.021972656
250	0xbc3b	-0.011413574
251	0xbc8e	-0.017333984
252	0xbcd5	-0.026000977
253	0xbba8	-0.005126953
254	0xbb95	-0.004547119
255	0xbb98	-0.004638672
